…
n```bash\nRuntimeError: Unsloth: Embedding matrix size did not get resized properly. Please file a bug report!\n```\n\nI trained my model via `unsloth` and `SFTTrainer`, after that I checked inference:\n```python\nmodel, tokenizer = FastLanguageModel.from_pretrained(\n    model_name=checkpoint_path,\n    load_in_4bit=False,\n    load_in_8bit=False,\n    dtype=\"bfloat16\",\n)\n\nprint(model)\n```\nOutputs:\n```\nPeftModelForCausalLM(\n  (base_model): LoraModel(\n    (model): Qwen3ForCausalLM(\n      (model): Qwen3Model(\n        (embed_tokens): ModulesToSaveWrapper(\n          (original_module): Embedding(151936, 2048, padding_idx=151654)\n          (modules_to_save): ModuleDict(\n            (default): Embedding(151936, 2048, padding_idx=151654)\n          )\n        )\n        (layers): ModuleList(\n          (0-27): 28 x Qwen3DecoderLayer(\n            (self_attn): Qwen3Attention(\n              (q_proj): lora.Linear(\n                (base_layer): Linear(in_features=2048, out_features=2048, bias=False)\n                (lora_dropout): ModuleDict(\n                  (default): Identity()\n                )\n                (lora_A): ModuleDict(\n                  (default): Linear(in_features=2048, out_features=32, bias=False)\n                )\n                (lora_B): ModuleDict(\n                  (default): Linear(in_features=32, out_features=2048, bias=False)\n                )\n                (lora_embedding_A): ParameterDict()\n...\n        )\n      )\n    )\n  )\n)\n```\n\nI used this code for checking inference:\n```python\nwith torch.no_grad():\n    inference_model.eval()\n\n    model_inputs = tokenizer(prompt, return_tensors=\"pt\").to(inference_model.device)\n    model_outputs = inference_model.generate(\n        **model_inputs,\n        do_sample=False,\n        max_new_tokens=16384\n    )\nprint(tokenizer.decode(model_outputs[0][model_inputs['input_ids'].shape[-1]:]))\n```\nAnd it works perfect!\n```\n<relevant_doc_ids>[]</relevant_doc_ids>\n\n<content>...\n``` \n\nAfter I tried to merge adapter it works still correct:\n```python\ninference_model = inference_model.merge_and_unload()\ninference_model\n```\n```\nQwen3ForCausalLM(\n  (model): Qwen3Model(\n    (embed_tokens): Embedding(151936, 2048, padding_idx=151654)\n    (layers): ModuleList(\n      (0-27): 28 x Qwen3DecoderLayer(\n        (self_attn): Qwen3Attention(\n          (q_proj): Linear(in_features=2048, out_features=2048, bias=False)\n          (k_proj): Linear(in_features=2048, out_features=1024, bias=False)\n          (v_proj): Linear(in_features=2048, out_features=1024, bias=False)\n          (o_proj): Linear(in_features=2048, out_features=2048, bias=False)\n          (q_norm): Qwen3RMSNorm((128,), eps=1e-06)\n          (k_norm): Qwen3RMSNorm((128,), eps=1e-06)\n          (rotary_emb): LlamaRotaryEmbedding()\n        )\n        (mlp): Qwen3MLP(\n          (gate_proj): Linear(in_features=2048, out_features=6144, bias=False)\n          (up_proj): Linear(in_features=2048, out_features=6144, bias=False)\n          (down_proj): Linear(in_features=6144, out_features=2048, bias=False)\n          (act_fn): SiLU()\n        )\n        (input_layernorm): Qwen3RMSNorm((2048,), eps=1e-06)\n        (post_attention_layernorm): Qwen3RMSNorm((2048,), eps=1e-06)\n      )\n    )\n    (norm): Qwen3RMSNorm((2048,), eps=1e-06)\n    (rotary_emb): LlamaRotaryEmbedding()\n  )\n  (lm_head): Linear(in_features=2048, out_features=151936, bias=False)\n)\n```\n\nAnd again I used my inference code and I had same correct result.\n\nBut when I tried save my merged model and load after that, it breaks:\n```python\ninference_model.save_pretrained(path)\n....\n\nmodel, tokenizer = FastLanguageModel.from_pretrained(\n    model_name=checkpoint__,\n    load_in_4bit=False,\n    load_in_8bit=False,\n    dtype=\"bfloat16\",\n)\n\nprint(model)\n```\n```\nQwen3ForCausalLM(\n  (model): Qwen3Model(\n    (embed_tokens): Embedding(151936, 2048, padding_idx=151654)\n    (layers): ModuleList(\n      (0-27): 28 x Qwen3DecoderLayer(\n        (self_attn): Qwen3Attention(\n          (q_proj): Linear(in_features=2048, out_features=2048, bias=False)\n          (k_proj): Linear(in_features=2048, out_features=1024, bias=False)\n          (v_proj): Linear(in_features=2048, out_features=1024, bias=False)\n          (o_proj): Linear(in_features=2048, out_features=2048, bias=False)\n          (q_norm): Qwen3RMSNorm((128,), eps=1e-06)\n          (k_norm): Qwen3RMSNorm((128,), eps=1e-06)\n          (rotary_emb): LlamaRotaryEmbedding()\n        )\n        (mlp): Qwen3MLP(\n          (gate_proj): Linear(in_features=2048, out_features=6144, bias=False)\n          (up_proj): Linear(in_features=2048, out_features=6144, bias=False)\n          (down_proj): Linear(in_features=6144, out_features=2048, bias=False)\n          (act_fn): SiLU()\n        )\n        (input_layernorm): Qwen3RMSNorm((2048,), eps=1e-06)\n        (post_attention_layernorm): Qwen3RMSNorm((2048,), eps=1e-06)\n      )\n    )\n    (norm): Qwen3RMSNorm((2048,), eps=1e-06)\n    (rotary_emb): LlamaRotaryEmbedding()\n  )\n  (lm_head): Linear(in_features=2048, out_features=151936, bias=False)\n)\n```\n\nAnd after inference I had incorrect result (still greedy search):\n```\n</think>[]<|im_end|>\n```\n\n# Here's what I've tried:\n* `merge_and_unload()` model and save it via `save_pretrained(path)`\n* `save_pretrained_merged(path, tokenizer, save_method=\"merged_16bit\")`\n* Load model via `AutoModelForCausalLM`\n* Load model via `FastLa
…
", \"k_proj\", \"v_proj\", \"o_proj\",\n                      \"gate_proj\", \"up_proj\", \"down_proj\",],\n    lora_alpha = 32,\n    lora_dropout = 0, # Supports any, but = 0 is optimized\n    bias = \"none\",    # Supports any, but = \"none\" is optimized\n    # [NEW] \"unsloth\" uses 30% less VRAM, fits 2x larger batch sizes!\n    use_gradient_checkpointing = \"unsloth\", # True or \"unsloth\" for very long context\n    random_state = 3407,\n)\nprint(model)\n\nPeftModelForCausalLM(\n  (base_model): LoraModel(\n    (model): Qwen2ForCausalLM(\n      (model): Qwen2Model(\n        (embed_tokens): Embedding(152064, 3584, padding_idx=151643)\n        (layers): ModuleList(\n          (0-27): 28 x Qwen2DecoderLayer(\n            (self_attn): Qwen2Attention(\n              (q_proj): lora.Linear(\n                (base_layer): Linear(in_features=3584, out_features=3584, bias=True)\n                (lora_dropout): ModuleDict(\n                  (default): Identity()\n                )\n                (lora_A): ModuleDict(\n                  (default): Linear(in_features=3584, out_features=16, bias=False)\n                )\n                (lora_B): ModuleDict(\n                  (default): Linear(in_features=16, out_features=3584, bias=False)\n                )\n                (lora_embedding_A): ParameterDict()\n                (lora_embedding_B): ParameterDict()\n                (lora_magnitude_vector): ModuleDict()\n              )\n              (k_proj): lora.Linear(\n                (base_layer): Linear(in_features=3584, out_features=512, bias=True)\n                (lora_dropout): ModuleDict(\n                  (default): Identity()\n                )\n                (lora_A): ModuleDict(\n                  (default): Linear(in_features=3584, out_features=16, bias=False)\n                )\n                (lora_B): ModuleDict(\n                  (default): Linear(in_features=16, out_features=512, bias=False)\n                )\n                (lora_embedding_A): ParameterDict()\n                (lora_embedding_B): ParameterDict()\n                (lora_magnitude_vector): ModuleDict()\n              )\n              (v_proj): lora.Linear(\n                (base_layer): Linear(in_features=3584, out_features=512, bias=True)\n                (lora_dropout): ModuleDict(\n                  (default): Identity()\n                )\n                (lora_A): ModuleDict(\n                  (default): Linear(in_features=3584, out_features=16, bias=False)\n                )\n                (lora_B): ModuleDict(\n                  (default): Linear(in_features=16, out_features=512, bias=False)\n                )\n                (lora_embedding_A): ParameterDict()\n                (lora_embedding_B): ParameterDict()\n                (lora_magnitude_vector): ModuleDict()\n              )\n              (o_proj): lora.Linear(\n                (base_layer): Linear(in_features=3584, out_features=3584, bias=False)\n                (lora_dropout): ModuleDict(\n                  (default): Identity()\n                )\n                (lora_A): ModuleDict(\n                  (default): Linear(in_features=3584, out_features=16, bias=False)\n                )\n                (lora_B): ModuleDict(\n                  (default): Linear(in_features=16, out_features=3584, bias=False)\n                )\n                (lora_embedding_A): ParameterDict()\n                (lora_embedding_B): ParameterDict()\n                (lora_magnitude_vector): ModuleDict()\n              )\n              (rotary_emb): LlamaRotaryEmbedding()\n            )\n            (mlp): Qwen2MLP(\n              (gate_proj): lora.Linear(\n                (base_layer): Linear(in_features=3584, out_features=18944, bias=False)\n                (lora_dropout): ModuleDict(\n                  (default): Identity()\n                )\n                (lora_A): ModuleDict(\n                  (default): Linear(in_features=3584, out_features=16, bias=False)\n                )\n                (lora_B): ModuleDict(\n                  (default): Linear(in_features=16, out_features=18944, bias=False)\n                )\n                (lora_embedding_A): ParameterDict()\n                (lora_embedding_B): ParameterDict()\n                (lora_magnitude_vector): ModuleDict()\n              )\n              (up_proj): lora.Linear(\n                (base_layer): Linear(in_features=3584, out_features=18944, bias=False)\n                (lora_dropout): ModuleDict(\n                  (default): Identity()\n                )\n                (lora_A): ModuleDict(\n                  (default): Linear(in_features=3584, out_features=16, bias=False)\n                )\n                (lora_B): ModuleDict(\n                  (default): Linear(in_features=16, out_features=18944, bias=False)\n                )\n                (lora_embedding_A): ParameterDict()\n                (lora_embedding_B): ParameterDict()\n                (lora_magnitude_vector): ModuleDict()\n              )\n              (down_proj): lora.Linear(\n                (base_layer): Linear(in_features=18944, out_features=3584, bias=False)\n                (lora_dropout): ModuleDict(\n                  (default): Identity()\n                )\n                (lora_A): ModuleDict(\n                  (default): Linear(in_features=18944, out_features=16, bias=False)\n                )\n                (lora_B): ModuleDict(\n                  (default): Linear(in_features=16, out_features=3584, bias=False)\n                )\n                (lora_embedding_A): ParameterDict()\n                (lora_embedding_B): ParameterDict()\n                (lora_magnitude_vector): ModuleDict()\n              )\n              (act_fn): SiLU()\n            )\n            (input_layernorm): Qwen2RMSNorm((3584,), eps=1e-06)\n            (post_attention_layernorm): Qwen2RMSNorm((3584,), eps=1e-06)\n          )\n        )\n        (norm): Qwen2RMSNorm((3584,), eps=1e-06)\n        (rotary_emb): LlamaRotaryEmbedding()\n      )\n      (lm_head): Linear(in_features=3584, out_features=152064, bias=False) ## should be Linear(in_features=3864, out_features=1, bias=False).\n    )\n  )\n)", "state": "open", "created_at": "2025-02-17T08:49:48+00:00", "updated_at": "2025-06-18T19:05:39+00:00", "html_url": "https://github.com/unslothai/unsloth/issues/1730", "user_login": "weiminw", "last_commenter": "pluesclues", "last_comment_date": "2025-06-18T19:05:39
…
